checkpoints/model_torch.pth (torch, 268573 bytes, 24 tensors)

conv1.weight f4 [10, 1, 5, 5]
000000 09 e3 12 be f8 f8 07 be 17 84 55 be d9 02 a1 be
       -0.1434442 -0.13278568 -0.2085117 -0.31447485
000010 aa 7b 98 be ae 0f 44 3e 36 b1 02 3e 79 90 11 be
       -0.29781848 0.19146606 0.12762913 -0.14215268
000020 56 d2 b1 bd 65 0c 44 be a0 08 d6 bd b1 dc 90 bc
       -0.086826965 -0.19145353 -0.10450864 -0.017683359
000030 7e fd 00 3e a7 e6 91 3e 4e 91 e0 3e 25 7a 8c 3e
       0.125967 0.28496286 0.4386086 0.2743694
000040 4d cd 1a 3e 72 d1 8b 3e d7 71 2d 3e 70 9d ac 3d
       0.15117379 0.27308232 0.16937958 0.08428466
000050 44 2e c3 3d a2 3b 15 be 5c c0 01 be 7e 23 02 be
       0.09530309 -0.1457353 -0.12671036 -0.12708852
000060 26 22 f8 bc 7e 7c a3 3e a7 a2 80 3e 47 20 0f 3e
       -0.03028972 0.31930918 0.25124094 0.13977157
000070 6b e2 21 be c6 8b 9f bd 13 d1 c4 3e 51 9e 95 3e
       -0.15809028 -0.077903315 0.3844076 0.29222348
000080 95 6b 6d 3d ee ed 4d be 3c e2 8d bd b0 1a 95 3e
       0.057963926 -0.20110294 -0.069279164 0.29121923
000090 b2 c2 99 bd 77 92 58 be d1 c4 c4 3c c4 b4 29 3d
       -0.07507838 -0.21149622 0.02401963 0.041432157
0000a0 ff fb 6b 3e 8f 97 ff bd 64 dc ec bd 74 8e 87 be
       0.23045348 -0.124800794 -0.11565474 -0.2647587
0000b0 b5 3d 5b 3d 97 1d ae bd 29 75 4f be eb ea 04 be
       0.053525645 -0.085017376 -0.20259537 -0.12980239
0000c0 27 26 a3 be 22 24 8f be 1b c2 83 be 11 1d 1f be
       -0.31865045 -0.27957255 -0.25734028 -0.15538432
0000d0 46 d3 4e 3e cc da 2c 3e 4c be 35 3e 64 f6 2d bd
       0.20197782 0.1688034 0.17748374 -0.042471305
0000e0 06 52 e8 3e d2 f1 a5 3e 1d ec 88 3d 45 b2 70 be
       0.4537508 0.32411057 0.0668566 -0.23505504
0000f0 cd 0b a7 3e c2 ee 82 3e 90 c2 2b be d2 ba b5 be
       0.3262619 0.25572783 -0.16773438 -0.35494095
000100 89 9a 89 be 12 5d 02 3e 2d df 01 be 47 fc fd be
       -0.26875713 0.12730816 -0.12682791 -0.49606535
000110 7c e0 9a be 85 d4 be 3d 87 5b 5e bd ab 32 58 be
       -0.30249393 0.09317879 -0.054286506 -0.21113078
000120 e1 2b c2 3d 62 7f 6a 3e 61 fd 83 3e 19 e6 95 bd
       0.094810255 0.22900155 0.2577925 -0.07319278
000130 89 06 0b 3d 47 7f ae bd eb 4a 80 bd 03 c8 b1 bd
       0.03394178 -0.0852037 -0.062642895 -0.08680727
000140 60 8c 1b 3d 10 16 b0 bd af 3a 55 bc df f3 00 be
       0.03797567 -0.08597958 -0.01301448 -0.1259303
000150 7a c6 49 be 94 9b f4 bc 51 39 85 bc 51 92 60 be
       -0.19704619 -0.029859342 -0.016262682 -0.21930815
000160 81 e6 35 be 11 ae 62 bd 24 35 a0 bd ec bc 27 be
       -0.17763712 -0.055341784 -0.07822636 -0.16380662
000170 d9 1d af bd 0e 7d 29 3b 8e 52 2d 3d c8 34 36 bd
       -0.08550615 0.0025861892 0.04231506 -0.04448393
000180 24 7c 2e be d7 6a 5c bc e4 13 c1 bd fa 6a 47 3e
       -0.17039543 -0.013453207 -0.09427622 0.19474402
000190 bd dc 5f 3e 17 a0 90 3e dc dd 90 bd 77 b0 61 be
       0.21861549 0.2824714 -0.07073566 -0.22039972
0001a0 70 68 de be e5 b5 2f 3e 04 0c a5 3e 12 f6 22 3e
       -0.43439054 0.17159231 0.3223573 0.15914181
0001b0 83 37 a2 be 0e 9b c6 be 26 a1 b1 3d 2a 7c 9f 3e
       -0.31682977 -0.38790172 0.08673315 0.31149417
0001c0 f3 49 56 3e 79 fa 68 bc 94 96 7d be 95 61 a2 bd
       0.20926647 -0.014219874 -0.24764472 -0.079287685
0001d0 bc 8e 35 3e 61 e0 39 3e 11 f1 65 3c d6 55 3d be
       0.1773023 0.18152 0.0140345255 -0.18489775
0001e0 1a 87 6f 3d e0 e7 2b 3e 01 e1 1c 3e df c9 cf bd
       0.058478452 0.16787672 0.15320207 -0.10145926
0001f0 35 f5 39 be 6a ab f8 3c 96 e5 08 be 93 9a 49 be
       -0.18159945 0.030355174 -0.1336883 -0.19687872
000200 18 04 a1 be 3d 42 39 be fd 9e d7 bd 1a af 77 be
       -0.31448436 -0.18091674 -0.105283715 -0.2418789
000210 54 19 72 be 95 5e 07 be ff 23 a2 be 85 6b ae 3e
       -0.23642474 -0.13219674 -0.31668088 0.34066406
000220 c0 49 26 3e 9a 70 34 bd f7 78 9c bc 2a 15 1a be
       0.16239071 -0.044052698 -0.01910065 -0.15047136
000230 c0 ce 2f 3e 7c 93 ba 3d c8 5c 95 3e d0 b4 82 3d
       0.17168713 0.09110162 0.2917235 0.063821435
000240 5f c1 e3 3c ac 84 c7 3a 24 14 90 3e 61 0b e8 3d
       0.027802167 0.0015222034 0.28140366 0.11330295
000250 4e 9b ab 3e 29 0f 75 3e 6c 89 f8 3c 4a 95 a8 be
       0.33516926 0.23931564 0.030338965 -0.329264
000260 df 3b 1e 3e 74 dc b8 3e a8 e0 a3 3e c6 8e f7 bd
       0.15452527 0.36105692 0.32007337 -0.12087779
000270 1e 62 b6 3d c9 0f 05 be fb e6 97 3e 9a db 1b 3e
       0.08905433 -0.12994303 0.29668412 0.1522049
000280 aa 25 2f 3d 7f ad 66 bd 31 dc 74 be 79 c6 34 be
       0.04276053 -0.056317803 -0.23912121 -0.17653836
000290 c3 9e a1 3e 35 53 0b be 13 92 1f bd 04 16 11 bd
       0.31566438 -0.1360596 -0.038957667 -0.035421386
0002a0 ec 37 75 be 37 55 5f 3e 31 80 18 be c3 92 07 be
       -0.23947114 0.2180985 -0.14892651 -0.13239579
0002b0 f6 94 83 be dd 74 29 be 0a f6 b0 bd 3a 21 d4 bb
       -0.25699586 -0.16548486 -0.08640678 -0.0064736875
0002c0 0a d0 a9 3e 18 c0 cf 3e 18 4b 8c 3e d8 cc 58 3e
       0.33166534 0.40576243 0.27401042 0.21171892
0002d0 94 67 58 3e 8b c9 44 3e f1 23 35 bd c7 05 58 3e
       0.21133262 0.19217508 -0.04422373 0.21095954
0002e0 83 d7 93 3d 0c 29 28 be a6 0a 8a be 5f 26 22 3d
       0.0721884 -0.16421908 -0.2696125 0.039587375
0002f0 d8 b2 3a 3e 91 b7 97 3e 9e 5c 07 be d7 44 2c be
       0.18232286 0.29632238 -0.13218924 -0.16823135
000300 e0 e2 81 be 3e 89 96 be 3b e4 43 be 7e 72 f4 bd
       -0.25368404 -0.29401582 -0.19130032 -0.119359
000310 d7 b0 26 bd f5 08 32 be 2c d0 61 be c2 b8 49 bd
       -0.04069599 -0.1738623 -0.22052068 -0.049248464
000320 89 81 92 3e 00 56 8f bd d6 df 96 be 2d 36 67 be
       0.28614452 -0.06998825 -0.29467648 -0.2257926
000330 ce 40 50 be b2 5a 46 bc 28 9d bf 3e c9 4e c2 3e
       -0.20337221 -0.012106584 0.37424588 0.37950733
000340 c9 2a 0b 3e ee 9a 06 3e 9f 70 1f 3d 28 a5 a7 3d
       0.1359054 0.13145038 0.038925763 0.08185798
000350 ec dc bc 3e 2d 88 93 3e 89 8e 7a 3e 95 e6 d0 be
       0.368873 0.2881483 0.24468435 -0.4080092
000360 5c 4f 8f be e9 7c 2a be 29 68 23 3d 7d 67 11 3c
       -0.27990234 -0.16649212 0.039894257 0.008874771
000370 15 8b 20 3d 41 38 44 be 13 06 a3 be 4f fc 96 be
       0.03919514 -0.19162084 -0.31840572 -0.2948937
000380 67 11 3c be 22 6f 53 3e 9d 6f a4 3e 9a fc 24 be
       -0.18366013 0.20647863 0.32116404 -0.16111985
000390 1e ab 8b be 04 f5 35 3e 9c f0 e7 3e b9 b0 fe 3d
       -0.2727899 0.17769247 0.45300758 0.12436051
0003a0 fe 41 07 be f2 3e aa be c2 cc 32 be 11 2d a1 3e
       -0.13208768 -0.33251148 -0.17460921 0.31479695
0003b0 96 d5 1e 3a 26 10 32 3e b2 c3 41 3d e8 7b 1f be
       0.00060590485 0.17388973 0.04730577 -0.1557461
0003c0 6e 53 17 3e 23 2f 26 bd a0 29 fa bd b9 c9 58 3e
       0.1477792 -0.040572297 -0.122149706 0.21170701
0003d0 a3 b7 9d 3d d9 78 50 3e 8a fd 04 3d 83 dc e4 3e
       0.077010415 0.203586 0.032468356 0.44699487
0003e0 37 35 9f 3e 45 7d 51 3e
       0.31095287 0.20457943

conv1.bias f4 [10]
000000 58 f4 30 be d8 d3 c9 be 42 55 b4 bd a9 fc f2 be
       -0.1728071 -0.39419436 -0.08805324 -0.4745839
000010 60 19 94 bd 5d 87 3e be a9 e8 b9 be 00 0f cb bd
       -0.072314024 -0.18606324 -0.36310318 -0.099149704
000020 fc 40 be be 57 e8 4a 3c
       -0.37158954 0.012384496

conv2.weight f4 [20, 10, 5, 5]
000000 2e a3 8b 3d 32 56 95 bd c2 ef d8 bd 12 35 20 bd
       0.068182334 -0.07291831 -0.10592605 -0.03911311
000010 e6 4b 8c 3d 4f 11 05 bc 53 cc ca 3c 5c 1c 6d 3d
       0.06850414 -0.0081218025 0.024755633 0.057888374
000020 3e 80 e4 3d ed ac 28 3d ac f5 a0 3d 4b f0 52 3d
       0.11157273 0.04118054 0.07859358 0.051498692
000030 83 bc 34 3d 83 12 a2 3d 43 65 26 3e 3c ac 73 3d
       0.04412509 0.07913687 0.16249566 0.059490427
000040 b1 cf 6e 3d b9 f6 f9 3d 72 e5 9f 3e 23 28 4b 3e
       0.05830354 0.12205262 0.3122974 0.1983953
000050 5a aa 1e 3d c3 6a e3 bc a4 f8 19 bd c4 a1 b2 3c
       0.03873668 -0.027760869 -0.037590638 0.021805651
000060 34 84 14 3e d9 53 15 3e e5 00 77 3d 0a 68 28 3e
       0.14503556 0.14582767 0.060303587 0.16445938
000070 35 66 61 3e a8 00 33 3e 26 ec b1 3d 58 90 09 bc
       0.22011645 0.17480719 0.0868762 -0.008396231
000080 d0 52 be 3d e7 bd f1 3c b1 be 0c 3c b3 60 7c 3d
       0.09293139 0.029509498 0.008590386 0.061615657
000090 bb 6a 3d 3c 76 26 7b 3c b1 72 d6 39 17 f5 36 bd
       0.011561091 0.015328994 0.00040902712 -0.04466733
0000a0 df 71 a4 3d bb 35 90 3d f8 4a a4 3d f2 06 04 bb
       0.08029532 0.07041498 0.08022112 -0.0020145741
0000b0 7b 92 d5 bd 2c f9 e8 3d 3e 33 c4 3d 28 77 3b 3b
       -0.104283296 0.11375651 0.09580086 0.0028604958
0000c0 e5 f1 d3 bc c6 b8 81 ba 11 aa 7f 3d 6a b9 26 be
       -0.02587218 -0.0009896986 0.062418047 -0.16281667
0000d0 54 f6 3e 3d 26 86 36 3e a2 44 d2 bc ce ba c9 3c
       0.046621636 0.17824611 -0.025667492 0.024625208
0000e0 76 fb 7c bd 2d 38 b4 bd 77 fb 63 bd d6 76 3a bc
       -0.06176325 -0.08799777 -0.055659737 -0.011380872
0000f0 a7 fe 01 be c5 9d a3 bd 05 42 73 3d a0 5d 68 3d
       -0.12694798 -0.079890765 0.059389133 0.056729913
000100 4d 28 b2 bc 96 b6 4e 3d 93 c0 2f bd 1c 46 03 3d
       -0.021747733 0.050467096 -0.042908262 0.032049283
000110 f0 0c 86 bd 06 a7 15 3e 75 29 9d bd e4 b1 3a be
       -0.065454364 0.14614496 -0.07673923 -0.18231922
000120 81 32 09 bd 33 31 3d 3d f2 91 63 3d d0 81 0d 3e
       -0.03349543 0.0461895 0.055559106 0.13819051
000130 6d 73 a5 3d 53 9a 8a 3d 56 cc 11 3d 58 bd 97 3d
       0.08078656 0.06767716 0.03559526 0.07409161
000140 3d 02 17 3d 99 f3 5d 3d 33 48 02 3d 20 36 d9 bd
       0.03686737 0.05418739 0.031807136 -0.10606027
000150 4f da 49 bd d9 18 98 bc 87 26 7e bc b3 db d3 bd
       -0.04928046 -0.018566536 -0.015512115 -0.10344639
000160 01 73 85 bc 37 7b 39 bd 59 9f 90 bd 35 c1 74 bd
       -0.01629019 -0.045283522 -0.07061643 -0.05975457
000170 df b5 00 bd db 5e ec bc 63 3d 14 3d 6d 6f 3a be
       -0.031423446 -0.028853824 0.036191355 -0.18206568
000180 0a eb 16 be bc d0 7f bd a4 51 09 3b b0 01 63 3d
       -0.14738098 -0.062454924 0.0020953203 0.05542153
000190 b3 13 e4 3d 93 4a 9b 3d da 36 98 3d 2e 18 6a 3d
       0.1113657 0.07582583 0.07432337 0.057151966
0001a0 f6 19 e7 bd 9e d2 ac 3b b4 a1 58 bd 7e 6d 4c 3d
       -0.112842485 0.005274131 -0.052888587 0.049909107
0001b0 c4 84 0a bb 36 95 c3 bd 2c b9 3b be 4f d7 a0 bd
       -0.0021136263 -0.09549944 -0.18332356 -0.07853567
0001c0 48 fd 4e bd 70 f3 93 bc a3 ea 85 bc 92 c0 0c be
       -0.050534517 -0.018060416 -0.016347235 -0.13745335
0001d0 dd a1 bf bd f1 92 e3 bd ab ee 69 bc ea b4 15 be
       -0.09357045 -0.11112011 -0.014278094 -0.14619794
0001e0 76 7d 12 3e 4f 25 a1 3d 16 eb 9f 3c 50 e6 ad bd
       0.14305672 0.07868444 0.019521277 -0.08491194
0001f0 9e 55 66 be e2 56 91 3d 22 33 19 bd a0 92 a8 bc
       -0.22493598 0.0709665 -0.03740228 -0.020577729
000200 f7 7a 19 3d e4 70 2a be 9a 08 38 3d 1d 73 04 bd
       0.037470784 -0.16644627 0.044930078 -0.032336343
000210 4a cf 4e 3d d0 a7 54 3d 49 6a 44 3c 3e c4 9c 3c
       0.050490655 0.05191785 0.011988231 0.019136544
000220 72 ef cf bb 61 55 99 bc 45 fa b6 3d bc c8 bb 3d
       -0.006345683 -0.01871747 0.08934454 0.091691464
000230 ba 77 b5 3c d2 7f c4 3c 31 0a 8f 3d 21 63 af 3d
       0.022151817 0.02398673 0.06984366 0.08563829
000240 20 51 91 3d 05 7d c7 bc 24 86 16 be 62 34 44 bd
       0.070955515 -0.024351606 -0.14699608 -0.04790152
000250 2c f8 eb bc 2d d2 7a 3d 92 9d 1d be 7d 8e 60 be
       -0.028804861 0.061235595 -0.1539214 -0.21929355
000260 a2 9f 8e 3d 6c 46 bc 3d 3d aa 2b bd 0c bd aa be
       0.06964041 0.091931194 -0.0419104 -0.33347356
000270 78 ab 5d be af bd 40 3d 25 aa 00 3e ff 8c 67 3d
       -0.21647441 0.047055896 0.12564905 0.05653095
000280 35 28 53 be 0e e1 00 be 62 05 d2 bc 6d c8 d6 3d
       -0.20620807 -0.12585852 -0.025637332 0.10487447
000290 0e 45 8d bb bb f5 4b be 75 c6 a8 bd 65 45 1c bc
       -0.0043112105 -0.19917957 -0.08240978 -0.009538029
0002a0 91 69 94 bc d9 df c8 bc c3 3e 23 bc b9 e0 6e bd
       -0.018116744 -0.024520801 -0.009963694 -0.05831978
0002b0 23 d4 05 3c 2c 6e 7b bd 94 fc 99 be 53 af 12 be
       0.008168253 -0.061384365 -0.30075514 -0.14324693
0002c0 ed 5b a3 be 3f 38 40 be 6e 7d 0f be 5d 45 0e bd
       -0.3190607 -0.18771456 -0.14012691 -0.03473412
0002d0 e0 0e 44 be 77 e7 e5 be a0 88 43 be 00 52 b8 b6
       -0.191463 -0.44903156 -0.19095087 -5.4931734e-06
0002e0 a2 cb d5 3c 9a f1 1e be 1f 65 03 be bc 39 bb 39
       0.026098076 -0.15521851 -0.12831543 0.00035710435
0002f0 84 78 68 3d 85 63 a8 3d 8c 8d a2 bd 7d d3 51 3d
       0.056755558 0.08222107 -0.07937154 0.05122708
000300 e4 74 00 3e 57 13 ae 3d 8c 8a f2 bb f5 4c c8 bd
       0.1254459 0.084997825 -0.00740177 -0.097803034
000310 24 20 83 3d a5 6d d2 3d 72 36 63 3d 93 39 13 be
       0.06402615 0.10274819 0.055471845 -0.14377432
000320 74 a8 47 3d 37 fc 00 be 33 20 a4 bd 63 a3 be bc
       0.048744634 -0.12596212 -0.08013954 -0.023271268
000330 f8 cb b7 bc d4 a6 27 be c0 f4 68 be 8d 9a 49 3d
       -0.022436127 -0.16372234 -0.22749615 0.049219657
000340 fa 40 28 3e 9b bf 3b 3e 9b ad cd bd 08 58 8b 3d
       0.16431037 0.1833481 -0.10042878 0.068039
000350 ef 50 a5 3d 4f e3 3d 3e d8 0b 32 3e cd 01 21 be
       0.080720775 0.18543743 0.1738733 -0.15723343
000360 82 1f 5c 3d 0a 3d fc 3d ad 76 69 3e 47 df 55 3e
       0.053740986 0.1231633 0.22799177 0.20885955
000370 06 a8 dd bd d4 7d 71 ba c8 4b 2b 3e 9c 08 fd 3d
       -0.108230636 -0.000921217 0.16728127 0.12355158
000380 14 db ff 3b 7d 80 58 3c 95 fa 11 be 2f 3f a4 bd
       0.0078080986 0.013214228 -0.14255746 -0.08019864
000390 13 65 25 be 97 73 56 be 9d 60 14 bd d6 dc ab bc
       -0.16151838 -0.20942532 -0.03622495 -0.020979326
0003a0 75 ba 08 3d c9 5d 18 3c 06 2d aa bd 7c 3f 81 3d
       0.033380944 0.009299704 -0.08309369 0.06310937
0003b0 39 8d a5 bd c6 a3 72 3c e9 5b a0 3c f8 a2 31 3d
       -0.08083577 0.014809554 0.019575076 0.04336831
0003c0 72 c5 78 3d 4d e6 19 be f2 f4 3e bd d9 30 54 bd
       0.060735174 -0.15029259 -0.046620317 -0.051804397
0003d0 f1 a9 ff 3c fe 4c 3c 3d 30 78 00 3d 6c 90 93 3d
       0.031208964 0.045971863 0.03136462 0.07205281
0003e0 d1 f4 83 bd 67 dd 7c 3d 8f 0d 72 3d 96 12 20 be
       -0.064431794 0.061734583 0.05909496 -0.1563209
0003f0 56 c4 3c 3d 22 18 ef 3c 1e e0 40 bd 28 88 9f 3e
       0.046085678 0.029186312 -0.047088735 0.31158566

conv2.bias f4 [20]
000000 a8 f5 12 bd e7 ea 34 bd b6 9b 65 bd 9d dd 2a bd
       -0.035878807 -0.044169333 -0.0560567 -0.041715253
000010 95 d9 58 bd 6b 2f d0 bc a0 5b de bc e3 73 11 3d
       -0.052941877 -0.025413236 -0.0271433 0.03551091
000020 e3 d4 c6 3c 40 18 eb 3c 74 c2 8b 3d aa 7e 17 bd
       0.024271434 0.028698087 0.06824198 -0.03698603
000030 98 78 b9 3d 7d 45 5c bd 81 b0 7c bc fc 0c 60 bc
       0.090562046 -0.053777207 -0.015422941 -0.013674971
000040 64 e8 a8 bd 81 6e 24 bd 20 1b 43 bd d3 df 2f 3d
       -0.0824745 -0.040144447 -0.04763329 0.042938065

fc1.weight f4 [50, 320]
000000 2b f5 ce bd 06 d8 30 bd 7e ff c5 bd 97 6a e4 bd
       -0.10105356 -0.043174766 -0.09667872 -0.11153143
000010 20 87 d9 3d 07 1f 44 3d 9f b4 9c be fa d3 1a be
       0.10621476 0.047881152 -0.30606553 -0.15119925
000020 d7 26 e1 3c 3f 0d b9 3d 25 c0 ed bd 21 5e d5 3d
       0.02748434 0.090357296 -0.11608914 0.10418344
000030 71 3b 9f bd 0f 8a b8 3d 86 0d d7 3d fa a9 2b 3e
       -0.077750094 0.090107076 0.10500626 0.1676406
000040 03 b2 81 3d 2e ff e6 bc 9c 8f e1 3c a5 db 8f 3c
       0.06332781 -0.028197851 0.027534299 0.01756079
000050 1c 4c 6c 3d c9 b6 96 3d 50 b9 f9 bc 8d 40 88 be
       0.05768977 0.07359082 -0.030483872 -0.26611748
000060 d2 2e 00 be 90 53 e1 3d 30 35 91 3d 78 77 b8 bd
       -0.1251786 0.110022664 0.07090223 -0.09007162
000070 e4 62 02 3d d1 44 b9 3d 18 3a f1 3c 8a 0a 5d ba
       0.03183259 0.09046329 0.029446647 -0.00084320514
000080 3d 3f d9 bd ef 3c 86 bd c7 71 7f 39 dc d8 99 be
       -0.10607765 -0.06554591 0.0002436108 -0.30048263
000090 1f 93 b3 bd 54 22 b0 3c 57 1b 7e 3d 18 b2 2e be
       -0.087682955 0.021500744 0.062037792 -0.17060125
0000a0 fe b5 9e 3d 72 be 03 3d f5 b4 da bd 6a fd b1 bc
       0.07749556 0.032164045 -0.10679046 -0.021727283
0000b0 0a bd d6 bc b5 a9 b6 3c 1a 90 c1 3c ca e8 6b 3d
       -0.026213188 0.02229772 0.023628283 0.05759505
0000c0 d8 a6 34 3e 57 31 06 3d 44 d2 82 bd e3 6c 55 be
       0.17641771 0.032761898 -0.06387761 -0.20842318
0000d0 67 19 89 3c 3e b1 38 bb e6 13 bf 3b 47 cc 1c 3e
       0.016735746 -0.0028181816 0.0058312295 0.153123
0000e0 f2 f2 bb 3d 09 4a c7 3b 69 1d 8f be 8a db 19 3e
       0.091771975 0.0060818237 -0.27952126 0.15025154
0000f0 ea 7b c8 3d 07 72 04 bd 90 98 7e be a4 5d 13 be
       0.0978926 -0.032335307 -0.24862885 -0.1439119
000100 b8 1b 16 be b0 3e b0 bd 43 3b 78 3d b1 30 42 3b
       -0.14659011 -0.08605707 0.06060339 0.0029631073
000110 bc e1 13 bd 2a fe 91 bb 1a 3d 12 3d 5e 29 c8 bc
       -0.03610395 -0.0044553475 0.035702802 -0.024433788
000120 b8 07 2e bc af 6b 1f bc b6 e5 7b 3d e5 fe 3c be
       -0.0106219575 -0.009730264 0.061498366 -0.1845661
000130 41 4b 4b 3d 45 b1 76 3d 6f d4 e3 bb 2c 8e 01 3e
       0.049632315 0.06022765 -0.0069528143 0.1265189
000140 d0 9f 98 3d 96 f9 6d 3d 3d 1a 6c ba 1c 64 56 be
       0.07452357 0.05809935 -0.00090065954 -0.20936626
000150 7b 22 1e be 1e 8a 82 3d 09 91 73 3d d2 b3 d0 3d
       -0.15442841 0.06374 0.05946449 0.10190548
000160 a0 d0 1d 3d d5 67 49 3e 47 4c 68 bb d9 b4 b8 bd
       0.03852904 0.19668515 -0.0035445855 -0.09018869
000170 32 f1 a8 3d 42 5c 1a bd 2f 77 da bd 93 f9 30 bd
       0.08249129 -0.03768564 -0.10667264 -0.043206763
000180 1e 27 16 bd 17 d5 41 bc 76 6e 84 be 88 73 15 be
       -0.0366584 -0.01183059 -0.25865525 -0.14594853
000190 e4 88 8b 3c 80 d5 1c 3d ef 24 26 bd 13 7c b2 3c
       0.017033048 0.038289547 -0.040562566 0.021787679
0001a0 e1 17 74 bb e8 d2 02 3e 35 99 1e 3d 01 ad 07 3d
       -0.0037245678 0.12775767 0.03872033 0.033123974
0001b0 ef 6b 53 3d 61 fb 1a 3d 80 0c 13 bd fc cc 8e bc
       0.051616605 0.03783739 -0.035900593 -0.017431729
0001c0 73 49 94 bd 6d c7 1b bc f7 76 3a bc f3 90 11 be
       -0.07240572 -0.009507996 -0.0113809025 -0.1421545
0001d0 07 c4 d6 3d 29 d7 3b 3c ef 97 5b be 49 9f 86 bd
       0.10486608 0.011464872 -0.21444677 -0.0657335
0001e0 0f 94 65 3e 19 b6 ff 3d c6 17 23 3d 6d 3f d2 bd
       0.22419761 0.12485904 0.039817594 -0.10266004
0001f0 1c 64 b6 bd de 7e 41 3d c3 d0 04 3e f2 6e 40 bd
       -0.08905813 0.04724013 0.12970261 -0.046980806
000200 dd 5e 32 bd ce 47 ce 3d ec 30 01 3d c0 78 18 be
       -0.0435475 0.100722894 0.031540796 -0.14889812
000210 fb ae e0 3d 32 9e 58 bd 8b 59 e3 bc 28 d4 15 3d
       0.10970875 -0.05288524 -0.027752658 0.03657928
000220 55 a9 fd 3d d6 11 d5 bd ca 88 7c bd 5b fd 00 3e
       0.12385813 -0.104037926 -0.06165389 0.12596647
000230 df ae 2f 3e 02 ea e0 bc ac 39 31 bd 37 f5 95 bd
       0.17156552 -0.027455334 -0.04326789 -0.07322162
000240 64 57 9c bc 36 bc 5a 3d dc 94 c5 3d fd c7 8b 3d
       -0.01908464 0.05340215 0.09647533 0.06825254
000250 37 33 c0 3c 35 4e 9b 3c ee b5 b4 bb e0 66 71 3d
       0.023461921 0.01895819 -0.005514852 0.058936
000260 fb da a1 3d 89 92 4b bd 2a f7 d1 3b 5e 26 e6 bc
       0.07903095 -0.049700294 0.006407638 -0.028094467
000270 06 71 7a 3d 3d 14 81 bd 8f 25 ea 3c e1 b5 58 be
       0.061142944 -0.06302688 0.028582362 -0.21163131
000280 9e 52 9e bd fc a2 17 bc 36 f1 0d 3e bf 97 a0 3c
       -0.07730602 -0.009255167 0.13861546 0.019603608
000290 8d 99 99 bc d0 df a8 bc ad 5c eb 3d 9d cf d6 3c
       -0.018749977 -0.020614535 0.11492286 0.026222045
0002a0 cf d0 86 3d cd 3a c8 bd 50 88 01 3e 5f ca b4 bd
       0.06582796 -0.0977684 0.12649655 -0.08827662
0002b0 b8 d6 10 bc f5 48 44 be 9f 52 10 3d 53 23 2a be
       -0.008840255 -0.19168456 0.035235044 -0.16615038
0002c0 34 a2 13 be 5f cb 32 be 03 40 bb be 2b 9d 74 be
       -0.14417344 -0.17460392 -0.36572275 -0.2388808
0002d0 3d 28 cd 3c 44 2f d1 3b 13 b4 b4 bd 7c 7b d9 3c
       0.025043601 0.0063838083 -0.08823409 0.02654814
0002e0 ad 0e 06 3d c0 6b 2d 3d fb a9 60 bd 2b 86 98 3d
       0.03272884 0.042339087 -0.054849606 0.074474655
0002f0 c7 ec 97 bb 6e 1f dd 3d db 6c 9e 3d 16 e4 09 3d
       -0.0046363804 0.1079701 0.07735606 0.033664785
000300 1a be 09 be 95 4d ad bc d2 12 55 3d f6 de 16 3e
       -0.13451424 -0.021155158 0.0520199 0.1473349
000310 5b 54 f7 ba d5 a7 a7 bd c5 9f c0 bc 5c 80 46 3e
       -0.0018869744 -0.08186308 -0.023513684 0.19384903
000320 3a 5c fa 3c e5 78 66 be 57 b3 33 bd 87 7e 85 bd
       0.030561555 -0.22507055 -0.043872204 -0.06518274
000330 a0 28 11 3e 6b e4 19 be b8 58 9a bd 66 47 aa bd
       0.14175653 -0.15028541 -0.07536453 -0.083143994
000340 66 1e 98 3d 20 54 78 3b 62 54 13 be b6 1b 8e be
       0.07427673 0.003789194 -0.14387658 -0.27755517
000350 5b f2 46 bc f7 02 08 3e 98 17 3b 3d b0 f1 37 3b
       -0.012142743 0.13282381 0.045676798 0.002806764
000360 71 35 21 bd f9 25 e3 bd 7b 5c 32 3c a7 86 1c 3e
       -0.039357606 -0.11091227 0.010886307 0.15285741
000370 03 81 5b bd 91 ac a6 bd 84 8c 8d 3b 25 75 ac 3d
       -0.053589832 -0.08138383 0.0043197293 0.08420781
000380 af 73 b5 bd 5f 6f 0b be df 95 44 be a2 11 bd be
       -0.088599555 -0.13616703 -0.19197796 -0.36927515
000390 5e b9 a4 3c 9e c9 8d 3d b4 60 35 be 6b d3 32 be
       0.020107921 0.06923221 -0.1771267 -0.17463462
0003a0 18 f0 f5 bc e6 df 9e 3d db 4a f5 3d ee 9f cc 3d
       -0.030021712 0.07757549 0.11977168 0.09991442
0003b0 4c 2d 1a 3d 4e 35 85 bd ea 2f ab 3d 4f 1f de 3d
       0.037640855 -0.06504308 0.08358748 0.108458154
0003c0 2b 5e 2c bd ea 7a 13 3c fa 41 7f 3b 5a af fc ba
       -0.042081993 0.009001473 0.0038949237 -0.0019278333
0003d0 c0 0d 85 3d d0 66 52 bd 9b 21 85 3d 1c 1b 22 3e
       0.06496763 -0.05136758 0.0650055 0.15830654
0003e0 94 7d 04 3d 40 82 6a be 04 5a ec bb 1f a7 ef 3d
       0.032346323 -0.22901249 -0.007212879 0.11701798
0003f0 20 2c 76 be b5 66 2f bd 6f 7e 7c bd 16 42 79 bd
       -0.2404027 -0.04282256 -0.061644014 -0.06085404

fc1.bias f4 [50]
000000 b2 1f c2 3b 63 75 6e 3e 8a 1c 39 3e c4 29 9e bb
       0.0059241885 0.23286967 0.18077293 -0.004826756
000010 9a 01 8e 3e 0e 4d 08 bd 65 7a 75 3e b8 38 b9 3d
       0.27735597 -0.03327661 0.23972471 0.09044021
000020 db 8e 3f bd 39 bc 40 3d a6 3d 22 3e 55 62 3a 3e
       -0.046767097 0.047054503 0.1584383 0.18201573
000030 8e 20 85 bd 6c 54 bb 3e 2a ef 40 3e c1 89 8f 3e
       -0.0650035 0.36587846 0.18841234 0.28034785
000040 e9 94 d7 3e 5f 60 9a 3d bd 86 1c 3e 5c 80 b0 3c
       0.42105797 0.075379126 0.15285774 0.021545582
000050 4c 80 a4 3e 33 17 55 3e 78 3b 0c 3e 5b 82 82 3e
       0.32129133 0.20809631 0.1369456 0.25490078
000060 35 c3 86 3e 87 eb 86 3d 9f 5c 15 3e 84 66 c6 3a
       0.26320806 0.06587892 0.14586113 0.0015136753
000070 eb e0 e7 bd 82 b1 33 3c 65 1a 20 3e 89 b1 fc 3d
       -0.113221966 0.010967614 0.15635069 0.1233855
000080 64 57 34 3e ec 7c 03 3b cc e1 57 3e 1b b8 38 3d
       0.17611462 0.0020063473 0.21082228 0.04509745
000090 82 a2 48 3e 6d a1 f2 bd 2c 2c 8f 3d 0c fd 99 3e
       0.19593242 -0.11847196 0.06990847 0.30075872
0000a0 a9 01 9e 3e 83 b4 90 3e 50 51 72 3e ec 61 c7 3e
       0.30860642 0.2826272 0.23663831 0.38941896
0000b0 33 cd 4d 3e b9 3d 98 3e ff ce 5c 3e 07 e0 1a 3e
       0.20097809 0.2973459 0.21563338 0.15124522
0000c0 0b 80 67 3e 26 5f e8 3e
       0.22607438 0.45385092

fc2.weight f4 [10, 50]
000000 68 23 20 3e b0 bc 47 3e f4 31 7a be 4c e0 2f be
       0.15638506 0.19505572 -0.24433118 -0.17175406
000010 a4 a3 8d bd 6a 61 03 3e 96 b4 7b be 24 15 92 be
       -0.069159776 0.1283013 -0.24580607 -0.28531754
000020 16 a5 01 be d7 f4 72 3d 07 a0 89 be f1 dc 80 be
       -0.12660632 0.05931553 -0.26879904 -0.25168565
000030 79 02 96 be 4f bd 9d be ac 9f 03 3e 60 d9 b7 be
       -0.2929876 -0.30808493 0.12853879 -0.3590803
000040 15 73 bb be 77 9b e8 be 3d 81 0b 3e 29 44 3c 3e
       -0.36611238 -0.4543111 0.13623519 0.18385376
000050 55 70 de be 0d 97 fc 3a 93 a0 f7 3d 23 54 c2 3c
       -0.43445078 0.0019271091 0.12091174 0.02372176
000060 e9 46 f1 bd 87 25 1c 3d a5 8b ae be f2 94 00 be
       -0.11781103 0.038121726 -0.34090915 -0.12556818
000070 6a 9f 43 be d0 af 5b 3d 3b 70 0b 3e 55 a3 42 3e
       -0.1910378 0.053634465 0.13617031 0.19007619
000080 2b 8f 0b 3e 02 fc c0 be 20 18 4f be b8 43 e7 3d
       0.13628833 -0.37692267 -0.20224047 0.11292213
000090 1f 67 02 bf 1e ec e1 bd 82 dc 12 3e cb 92 08 3e
       -0.509386 -0.11031364 0.1434193 0.13337247
0000a0 51 57 8a be 91 24 ab bd bf 1a b5 be 0b 64 67 be
       -0.27019742 -0.08356584 -0.35371968 -0.22596757
0000b0 c8 85 e2 3d 8e 64 a1 3d e4 cd dc be 74 22 ad be
       0.11060673 0.078805074 -0.43125832 -0.33815348
0000c0 19 86 2b 3e 70 11 b6 bc a5 a1 0f be d3 4f 4e ba
       0.16750373 -0.022225112 -0.14026506 -0.0007870171
0000d0 a1 d0 c2 3d c0 6f 93 be 52 d0 0b 3e d7 a9 a0 be
       0.09512449 -0.28796196 0.13653687 -0.31379578
0000e0 6f fa 9d 3d 36 97 30 be 2b 41 7f be c8 0f 9a be
       0.07713782 -0.17245182 -0.24927203 -0.30090165
0000f0 b0 b1 8e be 90 5d cf bb c5 76 89 be c8 b9 7e 3e
       -0.2786994 -0.006328292 -0.26848426 0.24875557
000100 b1 5f 08 bf f0 b2 64 3d 8d 1d 07 3e 01 17 a5 be
       -0.53271013 0.05583471 0.13194866 -0.32244113
000110 14 79 83 be 88 d4 44 be d3 73 d7 3d a5 63 89 3d
       -0.25678313 -0.19221699 0.105201386 0.06708459
000120 1f c5 ca ba 67 d4 b6 3d 39 19 1b 3e 38 b8 ab be
       -0.0015470124 0.08927231 0.1514634 -0.33538985
000130 2c 32 55 be 92 2b c7 be 7a 5f 40 be 16 80 c0 be
       -0.2081992 -0.3890043 -0.18786421 -0.37597722
000140 68 58 14 3e 72 5b 93 be a4 02 c3 bd 02 c9 b0 be
       0.1448685 -0.28780705 -0.09521988 -0.34528357
000150 42 d9 29 3e 7e c5 3c be 69 55 d3 3d a2 46 ca be
       0.16586784 -0.18434712 0.10319025 -0.39507014
000160 2d e2 aa be 02 92 9b 3d a3 e0 e5 3d 3f 51 10 3e
       -0.33375683 0.07596208 0.11224487 0.14093493
000170 55 12 e9 3d b3 0f df 3d 9b 25 a7 3d 08 ed f8 3d
       0.1138045 0.10891666 0.081614695 0.12154585
000180 94 92 ce 3d 4f 2b 45 3d c2 ff 34 be eb da 64 3e
       0.10086551 0.048137005 -0.17675689 0.22349136
000190 1a 2f 15 3e 9c 7d 50 3e b9 fe d9 bd 81 70 0b be
       0.14568749 0.20360416 -0.106442876 -0.13617136
0001a0 95 91 8e bd 4f f8 98 3d 27 27 d0 3d 4d 19 35 3e
       -0.06961361 0.07469236 0.10163718 0.17685433
0001b0 de 5f dd 3d a9 15 08 3d 68 06 f7 bd 96 13 08 3e
       0.10809301 0.03322378 -0.12061769 0.13288721
0001c0 b3 94 ec bd d5 08 8e bd 80 62 76 be ea 55 8e be
       -0.115517996 -0.06935278 -0.24061012 -0.27799922
0001d0 9c 9e 01 be 8e 77 c8 bd 41 74 45 be 94 d0 89 bd
       -0.12658161 -0.09788428 -0.19282629 -0.06729236
0001e0 7e 15 33 be a7 be bf 3d 00 79 4d be a6 ad f5 3d
       -0.17488667 0.09362536 -0.20065689 0.119960114
0001f0 7a 55 5c 3d eb 88 6f 3d 48 38 7b bd 15 c3 90 be
       0.053792454 0.058480185 -0.06133297 -0.28273836
000200 a5 6f cb 3d 82 e7 d0 bd 72 da d7 3d 03 6d 52 bd
       0.09933404 -0.102004066 0.10539712 -0.051373493
000210 df 99 1c 3e 4d 0a f4 bd 42 fd 5f 3e 5f 56 4a 3b
       0.15293072 -0.11916027 0.21873954 0.0030874235
000220 c7 64 12 be 11 74 9a 3d 8c ac 9d bd 34 9b 6e be
       -0.14296256 0.07541669 -0.07698926 -0.23301393
000230 7f 44 f8 3d a8 d7 2b 3e db 67 8d be 46 6d 1f 3e
       0.121224396 0.16781485 -0.27618298 0.15569028
000240 c5 b2 ed 3d 1f 6e e0 3d f9 82 9f be 5b 5c d6 bd
       0.11606363 0.10958504 -0.31154612 -0.10466834
000250 02 9c 50 be 69 67 28 be 13 2b 8b bd 6d 40 f5 bd
       -0.20372012 -0.16445698 -0.06795325 -0.11975179
000260 d7 88 3b be af f0 c1 3d a0 d1 8f be 7b eb 5c be
       -0.18313919 0.09469735 -0.2808962 -0.21574204
000270 d5 c3 49 be d8 7d 27 3e 95 9a c8 3d 7c 5d 37 3d
       -0.1970361 0.163566 0.09795109 0.044766888
000280 50 f8 d6 bd fd 09 d7 3d 65 83 28 3e 35 4b f4 be
       -0.104965806 0.10499952 0.16456373 -0.47713628
000290 8c 4b e6 3c f7 47 c5 3d d2 69 6c be 90 c8 0c 3e
       0.028112195 0.09632867 -0.23087242 0.13748384
0002a0 82 1e 5f be a2 3e 2a be 7a 1e 33 be 3c c7 b5 3d
       -0.21788982 -0.16625455 -0.17492095 0.088758916
0002b0 cb 00 70 be ea 10 4f be cc 98 3d 3c 82 39 91 be
       -0.23437802 -0.20221296 0.011572074 -0.28364187
0002c0 6a 3a 23 be 78 4e 0e be c8 35 b3 3d 2f c1 0d 3e
       -0.15940252 -0.13897121 0.08750492 0.13843225
0002d0 8c 6e 2e be 82 82 62 be 3e 06 16 3e c7 98 be 3d
       -0.17034358 -0.22120097 0.14650819 0.09306484
0002e0 60 56 b7 3c ec dd b1 3d d1 09 0c 3e 82 d4 00 be
       0.022380054 0.08684906 0.1367562 -0.12581065
0002f0 70 29 36 be cf 97 89 bd 6b 5d ec 3d 10 be 0a be
       -0.17789245 -0.06718408 0.115412556 -0.13549066
000300 5c 08 30 be 75 d8 01 bd 70 46 ef 3d 26 17 ce 3d
       -0.17190689 -0.03170057 0.11683357 0.10063009
000310 5f 29 81 3d b1 36 03 3e c3 23 5f be 8d 97 0f be
       0.06306719 0.12813832 -0.21790986 -0.14022656
000320 a8 23 14 3e 29 65 98 bd e6 35 06 be 35 38 4c be
       0.14466727 -0.0744117 -0.13106498 -0.19943316
000330 b1 5e 1f 3e bc 86 e1 3d d4 0f db 3c 2f b7 fd 3d
       0.15563466 0.11012027 0.026740946 0.12388455
000340 a1 39 0b 3e 75 a0 e5 be c5 70 d6 3d 76 33 67 be
       0.13596202 -0.44848981 0.10470728 -0.22578225
000350 27 dd 4e 3d f0 80 6a 3e 95 6a 24 be ac 16 1d be
       0.050503876 0.22900748 -0.16056283 -0.1534068
000360 ba 32 f0 3d b6 3c 08 3e 37 1f 47 be 89 c5 21 be
       0.11728425 0.1330441 -0.19445501 -0.1579801
000370 0a 97 f4 3d 3e 43 4f be e6 b7 86 be 01 58 16 3e
       0.11942871 -0.20240495 -0.26312178 0.14682008
000380 8b d0 eb 3d 46 c0 4b 3e 14 47 16 3e c8 f8 c2 3d
       0.11514386 0.19897565 0.14675552 0.095201075
000390 34 3f 63 bc 68 f3 19 be d0 f8 05 3e 8d f8 12 be
       -0.013870049 -0.15034258 0.13083196 -0.14352627
0003a0 3a c2 37 bc d4 74 f8 3d 8b d6 f9 bd ea 42 31 be
       -0.011215741 0.12131658 -0.12199124 -0.17310682
0003b0 e6 6e 10 3e 48 a3 67 3d 3e 86 5f be a8 78 06 be
       0.14104804 0.0565522 -0.21828553 -0.13131964
0003c0 ce bb 06 be 9b fe 55 bd 5e 7a cd 3d 7f 5f 04 be
       -0.1315758 -0.052244764 0.10033105 -0.12927054
0003d0 d9 a6 24 be a4 3a 64 be ad be bf 3d 16 5f 01 be
       -0.16079272 -0.22287995 0.093625404 -0.12633929
0003e0 49 6b 86 3d c6 67 fa bd d9 9c 9a be 9a b2 3b be
       0.06563432 -0.122268245 -0.3019779 -0.1832985
0003f0 95 a7 95 be b3 70 db 3d 63 6b 9c 3d ab 42 6d be
       -0.29229417 0.10714855 0.0763767 -0.23169963

fc2.bias f4 [10]
000000 19 b7 a9 3e a5 44 1d 3f 86 b7 92 be 38 ca 66 3d
       0.33147505 0.6143287 -0.28655642 0.056345195
000010 fd 96 31 be 72 a8 64 3d 91 9c 00 3e 83 f0 ee bd
       -0.17342754 0.055824704 0.12559725 -0.11666968
000020 1a f6 24 be d8 94 5b be
       -0.16109505 -0.21443498

exp_avg f4 [10, 1, 5, 5]
000000 7e e8 f6 3b 7a 71 2f 3c f4 07 31 3c 10 b5 84 3c
       0.0075350394 0.010708207 0.010805119 0.016199619
000010 58 04 a4 3c 70 25 50 3b 95 b9 d4 3b 14 e1 f1 3b
       0.020021603 0.0031760596 0.0064918497 0.0073815677
000020 87 7d 14 3c a0 44 65 3c 98 d7 11 3c 80 5c 44 3c
       0.009063131 0.013993412 0.008901499 0.011984944
000030 06 d5 b5 3b b1 27 8b 3b a7 8d 37 3c 3e 38 9c 3b
       0.005549076 0.004246675 0.011203206 0.004767447
000040 44 93 88 3b 6d 2c 85 3a 41 4c a9 bb d4 fe 99 3b
       0.004167946 0.0010160335 -0.005166561 0.0046995673
000050 4d 91 02 3b 3e ff 3c 3b 35 2f ce 3a 4f 83 7b bb
       0.0019923032 0.002883866 0.0015730622 -0.0038377827
000060 22 ae 2f 3b c6 c9 20 bc aa 12 3e bc ae 87 8b bc
       0.0026806672 -0.009813732 -0.01160113 -0.01703247
000070 02 f9 60 bc c9 2f 24 bc b7 c8 b8 bb 06 b1 1e bc
       -0.013731243 -0.0100211585 -0.0056391614 -0.00968576
000080 83 67 44 bc 7e 90 d0 bb 35 89 b9 bb fa 51 37 3b
       -0.01198757 -0.006364881 -0.0056621083 0.0027972446
000090 61 91 4c bb e6 70 b8 bb d6 09 c8 ba 19 96 3a ba
       -0.0031214582 -0.005628693 -0.001526172 -0.0007117703
0000a0 b4 62 c8 3b bb 98 64 ba c2 cf 97 bb 92 e9 25 bb
       0.006115282 -0.00087202684 -0.004632921 -0.002531622
0000b0 08 90 2f 3b 0c 3a 23 3c 34 8e 43 3a eb 9e 4a bb
       0.002678873 0.00996257 0.00074598496 -0.0030917476
0000c0 32 09 fb ba 9e 27 2a 3b 24 c3 0b 3a 74 a6 11 bb
       -0.0019152521 0.0025963555 0.00053315074 -0.0022224458
0000d0 55 5e 1e bc 10 a6 e5 ba e4 28 f0 3b 6d 04 a6 bb
       -0.009666045 -0.0017520804 0.0073290933 -0.0050664456
0000e0 e5 a9 e8 bb 19 25 e0 bb ef ce 93 3b 92 19 59 3c
       -0.007100331 -0.00684036 0.0045107524 0.013250725
0000f0 0f 60 97 bb 11 10 81 bb e3 39 10 bb 63 f1 b4 3b
       -0.0046196054 -0.003938683 -0.002200716 0.0055219396
000100 29 b3 44 3c fa 89 ca b9 06 3d ec 39 12 04 9e 3b
       0.012005606 -0.00038631243 0.00045058894 0.0048222626
000110 86 cb 53 3b 3a 90 10 3c ce 6d 53 3c 69 03 67 3c
       0.0032317354 0.008823449 0.012904597 0.014099934
000120 36 13 5e 3c 5f 9d c8 3b 45 89 82 3b 76 fa 1a bb
       0.013554385 0.0061222757 0.003983649 -0.0023647822
000130 03 38 34 bc 94 b3 73 bc 40 01 9d bc 60 cd 9a bc
       -0.010999682 -0.014874358 -0.019165635 -0.018896759
000140 bc 7e fc bb e4 7b b2 bc e2 7a a0 bc ab 24 91 bc
       -0.0077055376 -0.021787591 -0.019589845 -0.01771768
000150 cf 7a 87 bc 51 a2 76 bc 2d 72 ad bc 70 46 9f bc
       -0.016538052 -0.015053348 -0.021172607 -0.019442767
000160 66 82 82 bc 9a b5 61 bc f8 5b 86 bc f3 a2 ac bc
       -0.01593132 -0.013776207 -0.016401276 -0.021073794
000170 85 00 a8 bc fc 68 6c bc 62 60 1b bc e3 36 cb bc
       -0.02050806 -0.014429327 -0.009483429 -0.024806445
000180 e4 4e ed bc 9a 81 e4 bc ce 1c a9 bc 09 f6 25 bc
       -0.028968282 -0.02789383 -0.020643618 -0.01012946
000190 45 3b 5b bc 15 3b c0 bb 24 28 14 bc 39 f4 64 bc
       -0.01338083 -0.005866418 -0.009042773 -0.013974243
0001a0 00 a9 53 bc ff e8 16 bc f6 28 24 bb 26 6c d3 bb
       -0.012918711 -0.009210824 -0.0025048829 -0.0064521013
0001b0 04 3a 50 bc e8 28 48 bc 1f 46 ca bb 1d 01 78 3a
       -0.0127091445 -0.012216784 -0.00617291 0.0009460615
0001c0 b9 0a e2 3a b0 fd d9 bb ec 05 19 bc a4 be 19 bc
       0.0017245627 -0.0066525564 -0.009339791 -0.009383831
0001d0 16 08 5b ba 3e d9 a1 3b f7 10 1d ba 7a 2c 58 bb
       -0.0008355392 0.0049392274 -0.00059916027 -0.0032985494
0001e0 59 d4 d5 bb 37 ed 14 3b 80 d2 f1 3b b1 70 0b 3b
       -0.006525558 0.00227244 0.00737983 0.0021276886
0001f0 09 98 36 bb 2d 86 e2 3b 59 0f 59 3c dc 90 93 3c
       -0.0027861616 0.0069129677 0.013248288 0.01801341
000200 50 35 9b 3c b6 85 d4 3c 7b 43 c8 3b 16 19 56 3c
       0.01894632 0.025942665 0.00611156 0.013067504
000210 3d 21 76 3c b7 a5 ba 3c f6 01 d1 3c d3 2a 8e 3b
       0.015022573 0.022784097 0.02551363 0.004338601
000220 5f 20 0e 3c 2a 07 79 3c 9b a2 bb 3c ed e8 dc 3c
       0.00867471 0.015199462 0.022904685 0.026966536
000230 9d 6c 80 3b 61 1a e2 3b 5b cc 6b 3c 18 f5 ae 3c
       0.0039191977 0.0069001173 0.014391984 0.021357104
000240 a0 f5 d6 3c 1c e6 1c bb 1f a7 a5 bb 35 be 95 3b
       0.02624017 -0.0023940867 -0.005055323 0.0045697936
000250 e7 30 4e 3c 2f e8 44 3c a5 a1 07 bc ad 83 9c bb
       0.012584901 0.0120182475 -0.008278285 -0.004776439
000260 71 df dd ba 9e 2c ac 3a 17 df 6b 39 79 f1 44 bb
       -0.0016927553 0.0013135856 0.00022494454 -0.0030051155
000270 dc 64 10 b9 da 66 99 3b a8 cc 85 3b 4b ed 36 3a
       -0.00013770483 0.0046814503 0.004083235 0.00069781084
000280 9c d6 47 ba cc 0b e9 37 30 48 44 3b 0a 77 93 3b
       -0.0007623227 2.7781258e-05 0.0029950254 0.0045002745
000290 13 d8 9d 3b 6a 14 3e ba fa ed 18 39 93 ea 4f 3b
       0.004817018 -0.0007250967 0.00014584503 0.003172551
0002a0 b3 cf 9e 3b ab 05 c2 3b cf cb 81 bb c4 d0 b1 ba
       0.004846537 0.005921086 -0.0039610635 -0.0013566245
0002b0 9f 10 1a 3b b8 ce 47 3b 22 ca 93 3b 25 8c 79 3c
       0.0023508442 0.0030488204 0.00451018 0.015231167
0002c0 68 1d aa 3c e9 76 47 3c df 9b 8e 3b 54 c7 69 bb
       0.020765975 0.0121743465 0.0043520774 -0.0035671787
0002d0 c6 84 8b 3c 7a 1d 90 3c 36 de a8 3b 94 b8 32 bb
       0.017031085 0.01759218 0.0051534427 -0.0027270662
0002e0 07 80 7e bc 2e fb 60 3c 58 ca 07 3c 65 c6 6b 3b
       -0.015533454 0.013731761 0.008287989 0.0035976407
0002f0 8e 8b d7 bb 59 7a ac bc 09 ce ef 3b 81 e9 9c 3b
       -0.0065779155 -0.021054434 0.0073182625 0.004788578
000300 9c 3e 5d 3b 65 1b 00 bc 2b 8d a3 bc fc bd ba 3a
       0.0033759242 -0.007819031 -0.019964775 0.0014247294
000310 7a fb af 3b 3c b5 45 3b 38 12 2a bc 0e 52 96 bc
       0.0053705545 0.0030167839 -0.01038032 -0.018349674
000320 06 c0 16 3c 89 64 13 b9 ef d3 b9 3a df 9a 64 3b
       0.009201055 -0.00014056465 0.0014177541 0.003488235
000330 55 f5 2f bb 00 fc aa 3c a5 0f 29 3c d5 fd f5 38
       -0.002684911 0.020872116 0.010318671 0.0001172979
000340 76 8b 79 bb 01 1a 9f bb 40 cd f8 3c 55 73 49 3c
       -0.003807751 -0.004855395 0.030371308 0.012295564
000350 27 a6 a9 bb dc 45 51 bc cd d4 04 bc be 82 9d 3c
       -0.0051772776 -0.012773003 -0.008107376 0.019227382
000360 dc 48 3c 3c e2 6d 1c bb e9 ba 53 bc e2 1d 3a bc
       0.01149198 -0.0023869206 -0.012922981 -0.011359664
000370 56 98 7e 3c 1f a4 15 3c 3b ee 86 3b b9 b8 a4 bb
       0.015539249 0.009133368 0.0041177548 -0.0050269035
000380 ae 83 5a bc 9a a0 13 bb de fc a3 3a 22 d8 b3 39
       -0.013337059 -0.0022526146 0.0012511273 0.00034302572
000390 53 54 44 3b 5c 99 68 3b 3a ae 3b bb d9 95 84 bb
       0.0029957488 0.00354918 -0.0028637783 -0.0040461835
0003a0 5b 8e c2 39 09 15 3b 3b c9 3a ba 3b 46 71 37 bb
       0.00037108627 0.0028546473 0.0056832773 -0.00279911
0003b0 1b 75 b2 39 11 70 05 3b f7 c1 7b 3b 56 0c 05 3c
       0.00034038056 0.0020360986 0.0038415173 0.008120617
0003c0 58 c3 51 b9 05 58 04 3c b8 d6 c2 3b 01 34 17 3c
       -0.00020004564 0.008077626 0.0059460066 0.009228707
0003d0 e3 89 35 3c 98 2f 61 3b c9 eb 72 3c ad 37 78 3c
       0.011080238 0.0034360643 0.014826723 0.015149993
0003e0 e4 37 57 3c 95 b2 2d 3c
       0.013135884 0.010601659

exp_avg_sq f4 [10, 1, 5, 5]
000000 39 f8 98 3a df 35 80 3a 06 6d 78 3a 75 46 6e 3a
       0.0011670656 0.000978168 0.0009476695 0.00090894784
000010 ae 00 5a 3a c2 db 8a 3a a6 d5 67 3a 8d 7a 4e 3a
       0.00083161413 0.0010594057 0.0008843787 0.0007876538
000020 cb 28 21 3a a6 8c 31 3a 88 8c 72 3a 51 90 36 3a
       0.0006147741 0.00067729724 0.0009252508 0.0006964254
000030 f2 d8 0d 3a b5 0c 1e 3a 7f ac 54 3a b7 a8 4c 3a
       0.00054110505 0.0006029115 0.0008112862 0.0007807123
000040 c2 76 19 3a 63 a9 19 3a 3a b8 32 3a 57 fd 55 3a
       0.0005854183 0.00058617274 0.0006817613 0.0008163056
000050 d9 d4 50 3a 34 79 31 3a f7 39 2b 3a 3c ea 1d 3a
       0.0007966287 0.0006770075 0.000653177 0.00060239783
000060 63 ca 3b 3a e7 23 65 3a 40 47 69 3a f7 62 46 3a
       0.0007163642 0.00087410066 0.00088988617 0.00075678475
000070 ab 4d 6f 3a 02 91 94 3a 9f 02 84 3a 1e f8 65 3a
       0.00091287 0.001133472 0.0010071582 0.0008772629
000080 ad d8 44 3a d7 e2 8e 3a e9 57 a1 3a 49 3f 7f 3a
       0.0007509094 0.0010901344 0.0012309524 0.0009736908
000090 f6 6d 38 3a 35 08 6a 3a 49 e9 97 3a 87 61 a3 3a
       0.00070354284 0.00089276145 0.001158991 0.0012464978
0000a0 60 e4 6f 3a 65 ad 4f 3a 78 39 87 3a 09 93 a2 3a
       0.0009151157 0.0007922261 0.001031681 0.0012403439
0000b0 26 d8 ab 3a 02 5d 87 3a d8 c2 84 3a 0c 35 9c 3a
       0.0013110682 0.0010327401 0.0010128869 0.0011917665
0000c0 f5 47 ae 3a 6a 24 b0 3a 8a 1a a4 3a 2b 00 9e 3a
       0.0013296591 0.0013438587 0.0012520116 0.0012054493
0000d0 57 58 aa 3a c3 5e 9b 3a f7 bc 9b 3a 2f 42 ab 3a
       0.0012996298 0.0011853803 0.0011881877 0.0013065989
0000e0 4d 65 b8 3a 10 af a3 3a 14 b7 8e 3a 29 59 95 3a
       0.0014068276 0.0012488086 0.0010888302 0.001139437
0000f0 7c 0d c2 3a 2f 88 ad 3a b2 37 8c 3a 7a 03 96 3a
       0.0014805044 0.0013239438 0.0010697751 0.0011445128
000100 e3 db 88 3a 56 0e ba 3a be 5d 99 3a 00 ac 94 3a
       0.0010441508 0.0014194946 0.0011700911 0.0011342764
000110 1e 6e 8d 3a d5 e0 74 3a 4f 7b b9 3a 54 d6 9c 3a
       0.0010790264 0.0009341364 0.0014151129 0.001196573
000120 5c 5a 95 3a 9e f9 8f 3a 34 f1 9e 3a 31 ee 07 3b
       0.0011394727 0.0010984426 0.0012126327 0.0020741338
000130 30 02 ee 3a 24 f6 c3 3a 55 2d ba 3a b4 88 c7 3a
       0.0018158611 0.0014950675 0.0014204184 0.0015223236
000140 d3 dc fa 3a 36 80 bf 3a 56 8f 9e 3a e4 32 9c 3a
       0.0019139297 0.0014610353 0.0012097161 0.0011917022
000150 ca 96 b0 3a 59 bd d5 3a 1b 10 a4 3a 4e fa 92 3a
       0.0013472673 0.001630704 0.0012517007 0.0011213513
000160 30 a6 93 3a 4f 5c b7 3a 4b a2 c0 3a b3 bc 9c 3a
       0.0011264738 0.0013989302 0.0014696805 0.0011958092
000170 b1 7d 99 3a 0b 3c a9 3a eb d7 e6 3a db 22 cb 3a
       0.0011710433 0.0012911571 0.0017611956 0.0015498059
000180 b5 c5 b2 3a f5 24 bd 3a 7d f2 e0 3a 7a f8 16 3b
       0.0013639244 0.001443057 0.0017162111 0.0023036287
000190 ee ae 6e 3a 49 26 71 3a 12 63 6f 3a 04 ba 89 3a
       0.0009105046 0.00091991253 0.0009131889 0.0010507707
0001a0 ce f0 c2 3a b7 d2 61 3a 71 de 4f 3a 69 4a 2b 3a
       0.0014872791 0.0008614468 0.00079295697 0.00065342203
0001b0 f1 84 8a 3a 57 30 cd 3a 21 56 49 3a cf 58 4d 3a
       0.0010568184 0.0015654665 0.0007680376 0.0007833363
0001c0 71 53 42 3a ee cb 88 3a 7a bd ca 3a bc eb 39 3a
       0.00074129464 0.0010436752 0.0015467845 0.0007092317
0001d0 9a b4 60 3a 3f 65 77 3a 5b 18 a0 3a 6c 3c d6 3a
       0.00085718336 0.0009437389 0.001221429 0.0016344911
0001e0 6a e3 42 3a ae 53 6d 3a 98 b3 92 3a f6 e6 b9 3a
       0.00074344 0.0009053302 0.0011192439 0.0014183212
0001f0 8b af e4 3a e1 8e c5 3a 99 9d 9e 3a c6 74 8e 3a
       0.0017447335 0.0015072488 0.0012101411 0.0010868541
000200 2e a2 95 3a 6e 77 9e 3a d7 6d a3 3a 6d 51 82 3a
       0.0011416131 0.0012090036 0.0012468648 0.000994248
000210 91 04 81 3a 7f d5 90 3a 8a 14 9d 3a 5f ef 84 3a
       0.000984328 0.0011049955 0.001198427 0.0010142139
000220 23 8f 4c 3a f7 21 52 3a 11 9d 7a 3a 72 a7 8e 3a
       0.00078033115 0.00080159254 0.0009560148 0.0010883643
000230 5f 8e 5d 3a 07 17 37 3a 6e 77 3b 3a 87 6f 55 3a
       0.0008451696 0.00069843273 0.00071512803 0.0008141924
000240 12 6d 85 3a ec f1 47 3a bc e5 2f 3a e9 52 42 3a
       0.00101796 0.0007627297 0.00067099533 0.0007412867
000250 67 63 5d 3a 9e 53 84 3a e5 fc 6b 3a bf 14 64 3a
       0.0008445293 0.0010095721 0.0009002223 0.0008700601
000260 47 97 5a 3a 07 71 50 3a 0a b5 4a 3a 81 02 7e 3a
       0.0008338582 0.00079514127 0.00077326654 0.0009689704
000270 1a aa 81 3a 24 15 73 3a cd b6 44 3a fd 45 3c 3a
       0.0009892613 0.00092728646 0.0007504046 0.000718206
000280 dc a8 83 3a 0d 4e 7f 3a 53 c0 5d 3a c9 08 35 3a
       0.0010044831 0.00097391085 0.00084591395 0.0006905911
000290 99 f6 3f 3a d7 d4 80 3a a1 1e 6c 3a 88 b5 50 3a
       0.00073228177 0.0009829056 0.00090072496 0.00079616206
0002a0 12 a2 44 3a c4 a2 56 3a 82 ef 7b 3a 04 ff 66 3a
       0.0007500957 0.0008187706 0.00096105796 0.0008811804
0002b0 18 ee 55 3a b9 14 64 3a cb d7 6a 3a 85 48 55 3a
       0.0008160784 0.00087005977 0.0008958547 0.00081361114
0002c0 30 40 43 3a 78 24 2e 3a ba 0f 45 3a 72 03 57 3a
       0.00074482244 0.00066430075 0.0007517297 0.00082021125
0002d0 3e 38 6b 3a e9 e7 51 3a 43 6b 31 3a 59 2e 46 3a
       0.00089729193 0.00080072746 0.00067679974 0.0007560007
0002e0 ef ff 61 3a cd 1c 73 3a 93 fb 44 3a 4a b6 31 3a
       0.0008621206 0.0009274006 0.0007514294 0.00067791773
0002f0 3a 39 3e 3a f4 9c 6d 3a 78 ed 55 3a 5a 34 3e 3a
       0.0007256452 0.00090642204 0.0008160691 0.0007255726
000300 02 0c 33 3a 4a 33 3f 3a 4a 89 6b 3a 47 66 47 3a
       0.00068300974 0.00072937144 0.0008984996 0.0007606488
000310 7c 67 38 3a 62 ef 40 3a 7f 92 5c 3a ef fb 72 3a
       0.00070344633 0.00073598896 0.00084141636 0.00092691084
000320 a9 b9 4b 3b 0f c5 30 3b 99 cd 23 3b f8 32 1d 3b
       0.0031086004 0.0026972925 0.0024994372 0.0023986679
000330 87 95 22 3b 75 35 3c 3b f6 35 3a 3b c6 40 40 3b
       0.0024808364 0.0028718386 0.002841351 0.0029335483
000340 84 34 3b 3b 5c b5 3e 3b e4 55 2c 3b e7 d4 2c 3b
       0.0028565237 0.0029099798 0.0026296312 0.0026372017
000350 11 8e 3b 3b 9c 60 3e 3b 87 ee 40 3b f4 a4 11 3b
       0.0028618614 0.0029049283 0.0029439048 0.0022223564
000360 bb bb 15 3b 2f 2e 16 3b 62 f8 26 3b b2 33 3b 3b
       0.0022847492 0.002291571 0.0025477638 0.0028564748
000370 ec 70 11 3b 55 26 18 3b b3 d2 1c 3b 40 ba 2a 3b
       0.002219255 0.0023216207 0.0023929297 0.0026050955
000380 4e bb 38 3b 09 08 41 3a 2b 99 40 3a 88 cc 26 3a
       0.0028187814 0.0007363563 0.00073470426 0.0006362875
000390 7e 33 43 3a 49 f9 57 3a f5 76 2e 3a c3 8b 22 3a
       0.00074463326 0.00082387455 0.0006655299 0.00062006357
0003a0 8f 72 24 3a be e4 4c 3a ee a6 65 3a dd 70 14 3a
       0.0006273174 0.00078160677 0.0008760531 0.000566257
0003b0 a3 4f 0d 3a 47 fc 3b 3a a9 9e 6d 3a c8 3c 7c 3a
       0.000539059 0.0007171076 0.0009064475 0.0009622094
0003c0 8a 7b 08 3a 53 4e 16 3a d6 76 69 3a b6 23 97 3a
       0.0005206397 0.0005733717 0.00089059526 0.0011531028
0003d0 a7 af 8d 3a 2b cd 19 3a 07 fd 3e 3a 0e cb 90 3a
       0.0010809795 0.0005867059 0.0007285629 0.0011046843
0003e0 81 48 a1 3a e5 4a 83 3a
       0.0012304933 0.0010016827

exp_avg f4 [10]
000000 be d6 89 bc fe 03 19 3b b2 4c 07 bc 4b 75 c9 3c
       -0.01682603 0.0023348327 -0.008258032 0.024592062
000010 80 7c 0e 3c 6d 49 a0 bc b3 6b 4c 3b 9a 65 40 3c
       0.008696675 -0.019566262 0.0031192123 0.011742974
000020 da ad 0b bc f5 c4 e3 3b
       -0.008525336 0.0069509693

exp_avg_sq f4 [10]
000000 e7 17 af 3a 4e 35 d8 3a 34 5e dc 3a a7 cf 99 3a
       0.0013358564 0.0016495378 0.0016812743 0.0011734859
000010 4a 0b 06 3b a3 ed c0 3a b0 16 6c 3a 93 e0 a6 3a
       0.0020453506 0.0014719259 0.0009006066 0.0012731723
000020 f1 20 38 3b 94 bf 49 3a
       0.0028095806 0.0007696089
